{"architecture":{"class_name":"Functional","config":{"name":"sequential_1","layers":[{"class_name":"InputLayer","config":{"batch_input_shape":[null,3],"dtype":"float32","sparse":false,"ragged":false,"name":"input_1"},"name":"input_1","inbound_nodes":[]},{"class_name":"Dense","config":{"name":"dense_4","trainable":true,"dtype":"float32","batch_input_shape":[null,3],"units":100,"activation":"relu","use_bias":true,"kernel_initializer":{"class_name":"GlorotUniform","config":{"seed":null}},"bias_initializer":{"class_name":"Zeros","config":{}},"kernel_regularizer":null,"bias_regularizer":null,"activity_regularizer":null,"kernel_constraint":null,"bias_constraint":null},"name":"dense_4","inbound_nodes":[[["input_1",0,0,{}]]]},{"class_name":"Dense","config":{"name":"dense_5","trainable":true,"dtype":"float32","units":50,"activation":"relu","use_bias":true,"kernel_initializer":{"class_name":"GlorotUniform","config":{"seed":null}},"bias_initializer":{"class_name":"Zeros","config":{}},"kernel_regularizer":null,"bias_regularizer":null,"activity_regularizer":null,"kernel_constraint":null,"bias_constraint":null},"name":"dense_5","inbound_nodes":[[["dense_4",0,0,{}]]]},{"class_name":"Dense","config":{"name":"dense_6","trainable":true,"dtype":"float32","units":0,"activation":"relu","use_bias":true,"kernel_initializer":{"class_name":"GlorotUniform","config":{"seed":null}},"bias_initializer":{"class_name":"Zeros","config":{}},"kernel_regularizer":null,"bias_regularizer":null,"activity_regularizer":null,"kernel_constraint":null,"bias_constraint":null},"name":"dense_6","inbound_nodes":[[["dense_5",0,0,{}]]]},{"class_name":"Dense","config":{"name":"dense_7","trainable":true,"dtype":"float32","units":1,"activation":"linear","use_bias":true,"kernel_initializer":{"class_name":"GlorotUniform","config":{"seed":null}},"bias_initializer":{"class_name":"Zeros","config":{}},"kernel_regularizer":null,"bias_regularizer":null,"activity_regularizer":null,"kernel_constraint":null,"bias_constraint":null},"name":"dense_7","inbound_nodes":[[["dense_6",0,0,{}]]]}],"input_layers":[["input_1",0,0]],"output_layers":[["dense_7",0,0]]},"keras_version":"2.11.0","backend":"tensorflow"},"image_data_format":"channels_last","input_shapes":[[3]],"output_shapes":[[1]],"tests":[{"inputs":[{"shape":[3],"values":["OIZLv3lG8L06qSa/"]}],"outputs":[{"shape":[1],"values":["S6w2Pw=="]}]}],"trainable_params":{"dense_4":{"weights":["…","…"],"bias":["…"]},"dense_5":{"weights":["…","…","…","…","…","…","…","…","…","…","…","…","…","…","…","…","…","…","…","…","…","…","…","…","…","…","ACtqvLZtEb7GxJo95PJUPYfa+b3Y3R09gCy+PDpSkD0="],"bias":["…"]},"dense_6":{"weights":[],"bias":[]},"dense_7":{"weights":[],"bias":["S6w2Pw=="]}},"hash":"f429f1d3efebc9fa0b58f00e75ce20bdf8105718f0ddc7358f807c01cf46ee67"}